SmartTrafficLights/Assets/TrainingModels/2 colori/from colab/SmartLight_goodTry.onnx (onnx, 72703 bytes, 6 tensors)

distribution.branches.0.bias f4 [2]
000000 bf 97 16 3c bf 97 16 bc
       0.0091914525 -0.0091914525

distribution.branches.0.weight f4 [2, 128]
000000 bc 91 1f bd 79 a6 84 3d 4b b5 69 3d e4 19 18 bd
       -0.038957343 0.06477065 0.05705766 -0.037134066
000010 87 ba 90 bd f6 16 a0 bd be d3 8b 3d c2 dc 30 3d
       -0.07066827 -0.078168795 0.06827496 0.04317928
000020 fe 00 09 bd 3d ec 15 3d 76 6b 4e 3b 34 10 95 3d
       -0.03344821 0.036602248 0.0031497157 0.07278481
000030 bc 94 1a bd 58 e3 6c 3d 08 a0 77 bd 15 37 89 3d
       -0.0377395 0.057834 -0.060455352 0.06699959
000040 f1 a1 9b 3d 8a cd 9a 3d 90 99 9e bd fa 46 81 3d
       0.07599247 0.07558735 -0.077441335 0.06312366
000050 c8 4b 99 3d 86 70 71 3d 35 c2 51 bd 12 e2 8e bd
       0.07485157 0.0589452 -0.0512106 -0.06976713
000060 db 75 85 bd fd 95 0d 3d 0f 6c 35 bd 6b 88 99 bd
       -0.0651662 0.034566868 -0.044292506 -0.07496723
000070 91 e3 5d bd 55 40 88 3d a7 00 5e 3d b0 4d a8 bd
       -0.054172102 0.06652895 0.05419984 -0.08217943
000080 cb 3e 85 bd 8f 74 7e 3d ba c4 5b 3d cd f8 1e 3d
       -0.065061174 0.062122878 0.05365441 0.038811494
000090 ed ae 87 3d b3 55 58 bd f7 a2 a6 bd d6 f6 a8 bd
       0.06625161 -0.052816104 -0.08136552 -0.08250205
0000a0 27 dd 89 bd 95 aa 85 bd 7a 0f 84 3d 6e 03 a0 bd
       -0.067316346 -0.065266766 0.064482644 -0.07813154
0000b0 42 5e a4 bd e8 05 9e 3d 2f 39 e2 bc ec 5c 8b bd
       -0.08025791 0.0771597 -0.027615158 -0.06804833
0000c0 fb c6 14 bd 93 d6 54 3d cb 09 7e 3d ec 93 f7 bc
       -0.036322575 0.051962446 0.062021058 -0.030221902
0000d0 e4 96 96 bd b0 42 a5 3b de d3 3a bd 76 cf 96 3d
       -0.07352999 0.00504335 -0.04561221 0.07363789
0000e0 72 c6 7e bd 4d ea 8e 3d ef 84 74 3d 0f db b0 bd
       -0.06220097 0.06978283 0.059697088 -0.08635532
0000f0 41 b0 48 3d ff f1 c5 3d 88 d7 92 bd bc 67 99 bd
       0.048996214 0.09665298 -0.071700156 -0.07490489
000100 f3 bf 8f bd 29 4e 82 3d 80 ce 9e bd e0 3c b4 bd
       -0.07019033 0.06362564 -0.077542305 -0.088006735
000110 28 89 32 bd b2 65 86 3d d6 ee 98 bc a7 95 bb bc
       -0.043587834 0.065623656 -0.018668573 -0.022898508
000120 f4 4b 06 3d 53 90 9c bd e0 58 42 bd c2 cc 0f 3d
       0.03278728 -0.07644715 -0.04744804 0.03510738
000130 6b 99 a8 3d 68 76 57 bd 7f d0 8a bd 44 4d 3c 3d
       0.08232387 -0.052603155 -0.06778049 0.045972124
000140 29 a5 a6 bd ef 09 41 3d f4 a1 9b 3d 4a 04 9f 3d
       -0.081369705 0.047128614 0.075992495 0.0776449
000150 dc f7 af bd b3 34 92 3d 25 7f 14 3d cd dd d2 3c
       -0.08592197 0.07138958 0.036254067 0.025740528
000160 13 92 96 3d 94 7a 73 3d 45 a7 3d bd a7 1e f7 bc
       0.0735208 0.05944307 -0.0463021 -0.030165983
000170 65 6c a4 3d 17 8d 81 3d eb cc 39 3d 17 5a b7 3d
       0.08028487 0.06325739 0.04536144 0.0895273
000180 84 10 93 bd 16 43 a8 bd 4a cd ba 3c 81 84 2f bd
       -0.071808845 -0.082159206 0.022802968 -0.042850975
000190 e4 d7 7f 3d c1 ff dc 3c 56 bd 10 3d f1 23 0c bd
       0.06246175 0.026977422 0.035336815 -0.034213964
0001a0 c9 0c bd 3d 30 b1 85 3d 18 20 97 bd cf 3a 0a 3d
       0.09230954 0.065279365 -0.07379168 0.03374749
0001b0 09 86 83 3d 76 ff 30 bd 78 11 6b bd 19 ed b4 bd
       0.064220496 -0.043212377 -0.057389706 -0.08834285
0001c0 40 ce 8d 3d f3 89 a1 bd e2 8e 9a bd e0 9d 3a 3d
       0.06924105 -0.0788764 -0.07546784 0.045560718
0001d0 3d f1 2d 3d d6 be 92 3d d7 be 19 3d e6 86 3d bd
       0.04246639 0.07165305 0.037535515 -0.046271227
0001e0 45 4e f1 3c ca 30 af bd c1 69 5a bd 54 fa a4 bd
       0.029456267 -0.08554228 -0.05332351 -0.08055559
0001f0 5d fb ac bd 7b c2 66 bd 8c 41 0c 3d b6 f3 39 3d
       -0.08446381 -0.056337815 0.034242198 0.045398436
000200 7b 51 fc 3c db e7 95 bd e0 5d 97 bd a5 a9 03 3d
       0.030800572 -0.073196135 -0.07390952 0.032144208
000210 a0 19 8e 3d 1e a7 9f 3d ee da 89 bd 62 7f d6 bc
       0.06938481 0.07795547 -0.06731211 -0.026183788
000220 0c b9 b9 3c 1b 57 2c bd cc 02 46 bc 5d 2c 94 bd
       0.022671245 -0.042075258 -0.012085628 -0.07235024
000230 e6 b0 32 3d 12 53 9e bd cb 80 94 3d 26 b1 86 bd
       0.043625735 -0.07730688 0.07251128 -0.06576757
000240 2d 8f 85 bd e5 06 92 bd 4a 23 93 3d ca ee 40 bd
       -0.06521449 -0.07130221 0.07184465 -0.047102727
000250 99 10 b6 bd 8e 06 9f bd 54 56 23 3d ae 7b 83 3d
       -0.088898845 -0.07764922 0.03987725 0.064200744
000260 b7 42 a5 3d 9c 2c 23 bd 10 77 17 3d 37 d8 9a 3d
       0.080693655 -0.039837465 0.03697878 0.07560771
000270 be 61 51 3d b9 41 88 bd 44 9c 45 bd f6 2c 95 3d
       0.051118605 -0.066531606 -0.04824473 0.07283966
000280 e6 ee 4e 3d b1 e8 6a bd ca 45 58 bd 63 d3 2f bd
       0.0505208 -0.057350818 -0.05280093 -0.042926203
000290 43 d6 4f bd 30 84 4f 3d 35 bf 7e 3d de 15 82 3d
       -0.050741445 0.050663173 0.062194068 0.06351827
0002a0 dd 14 90 3d 94 1c 93 3d fc 9d 83 bd 42 b6 99 3d
       0.07035229 0.07183185 -0.064266175 0.07505466
0002b0 d8 80 ba 3d 71 30 9b bd e8 bf 02 3d 3b 06 a0 3d
       0.09106606 -0.07577599 0.031921297 0.07813688
0002c0 ce 10 1f 3d 0d cf 51 bd e3 b2 8c bd ef 45 d2 3c
       0.038834386 -0.05122285 -0.068700574 0.025668113
0002d0 73 cf 82 3d bd d8 3e bc ce 44 55 3d 38 bc 8b bd
       0.06387224 -0.011648354 0.05206757 -0.06823009
0002e0 c8 32 9e 3d de 9f 5f bd 09 fa 8a bd 4c 74 db 3d
       0.077245295 -0.05459582 -0.06785972 0.10715541
0002f0 d6 9a 4f bd b6 58 b0 bd b1 95 98 3d 2c 72 b1 3d
       -0.050684772 -0.0861067 0.07450426 0.08664355
000300 c9 7c 64 3d 46 b9 8e bd e4 9a 9d 3d e5 12 90 3d
       0.055783067 -0.06968932 0.07695559 0.07034854
000310 6c 06 2a 3d d3 31 8c bd 18 d0 82 bb e4 9d 25 3d
       0.04151003 -0.06845441 -0.003992092 0.04043378
000320 65 22 ce bc 66 f9 9e 3d 89 8c 44 3d 8f 64 7b bd
       -0.025162885 0.07762413 0.047985587 -0.061375197
000330 3c d0 89 bd ea c1 70 3d b0 1f 86 3d ff 33 2f bd
       -0.06729171 0.05877868 0.06549013 -0.042774197
000340 de 75 9c 3d ee 6e 2f bd 7a 40 8a bd 25 ed 83 bd
       0.07639669 -0.0428304 -0.06750579 -0.06441716
000350 ca fd ad 3d bc 1e 50 bd 44 96 31 bd 71 89 f4 bc
       0.08495672 -0.05081056 -0.043356195 -0.029850693
000360 f2 90 b4 bd 47 24 98 bd d4 d7 8f 3d fb d1 d9 3c
       -0.088167086 -0.07428794 0.07023588 0.026589384
000370 c6 92 9e bd a9 6d 93 bd a9 b1 53 bd 21 e4 95 bd
       -0.077428386 -0.071986504 -0.0516831 -0.07318903
000380 10 fa 93 3d cd 5b 95 3d f3 67 54 bd c4 d8 51 3d
       0.0722543 0.072929 -0.051856946 0.051232114
000390 80 e0 8b bd 98 fc ff bc 06 cf 0c bd 5b 27 5a 3d
       -0.06829929 -0.031248376 -0.03437712 0.05326019
0003a0 1d d4 94 bd 5e 92 76 bd e6 12 98 3d 53 59 7a bd
       -0.0726702 -0.06019818 0.074254796 -0.061120342
0003b0 f8 36 99 bd 3d ad 0d 3d a8 ef 91 3d fd 14 c6 3d
       -0.074811876 0.03458904 0.07125789 0.09671972
0003c0 20 32 a4 bd 99 c2 82 3d 0c 47 ac 3d 97 62 29 bd
       -0.08017373 0.06384773 0.084119886 -0.04135379
0003d0 5b b3 15 bd 8f 81 b0 bd b6 b9 5a bd a7 17 6d 3d
       -0.036548 -0.08618461 -0.053399764 0.057883885
0003e0 82 60 3f bd 41 3a a3 3d 85 70 88 3d e0 58 86 3d
       -0.046722896 0.079700954 0.066620864 0.0655992
0003f0 fc c8 8b 3d 40 5f 75 3d 0a b4 36 bd 55 60 1d bd
       0.06825444 0.05990529 -0.044605292 -0.038421948

network_body.linear_encoder.seq_layers.0.bias f4 [128]
000000 15 bf 2e 3d e6 05 0d 3d 6b 57 a0 bb 18 32 33 3d
       0.0426627 0.034429453 -0.0048932335 0.043748945
000010 24 39 90 3d a1 7c e5 3c b6 f9 6f 3d 76 e0 b7 3c
       0.07042149 0.02801353 0.058587752 0.022445899
000020 d1 18 04 bc bb 06 bf 3c fe 82 73 3d 40 b7 e0 bc
       -0.008062557 0.023318639 0.059451096 -0.02743113
000030 f2 5f 99 3c f2 eb 0e 3d c2 1d 66 3c 99 71 81 3b
       0.018722508 0.034892984 0.014045181 0.0039503095
000040 d8 85 2b 3d b9 e2 0a bb 99 63 59 3c 90 f2 d9 3d
       0.04187569 -0.0021192266 0.013268375 0.10641968
000050 ae cc 0e 3d 70 1c 10 3d d6 d7 12 3c 98 2c 13 3d
       0.034863167 0.03518337 0.008962592 0.0359312
000060 b5 03 22 3c ed 75 0a 3d ce 97 18 3d 07 95 f5 bc
       0.009888579 0.03380387 0.037254147 -0.029978288
000070 d1 08 4e 3d 5f ac 29 bb 06 19 2e 3d 26 08 83 bd
       0.050301377 -0.0025890095 0.042504333 -0.063980386
000080 36 f7 ba 3c b8 e9 ab 3c 25 37 c3 3d 10 d7 48 3c
       0.022822957 0.02098547 0.09532002 0.012258306
000090 e3 74 ae 3c 0b fe fc bb bd cc 38 3d 8a 0e 09 3d
       0.02129597 -0.007720714 0.04511713 0.03346113
0000a0 8f 09 1d 3d 34 c3 17 3d 76 c3 22 3d 01 a8 d9 bd
       0.038339194 0.037051395 0.039737187 -0.10627747
0000b0 a5 9b c1 3c de 4a 64 3d 75 df 14 3d 05 14 73 3d
       0.023633787 0.05573546 0.036345918 0.059345264
0000c0 e1 50 15 bd 34 ca 82 3d 41 a4 32 3d b3 d2 90 3d
       -0.036454085 0.063862234 0.043613676 0.07071438
0000d0 fe 9b a2 3d f8 c5 98 bc f4 a8 82 3d af 6a 49 3d
       0.079399094 -0.018649086 0.063798815 0.049174007
0000e0 1d d9 10 bc 38 ca cd 3c 42 6c 1f bd fa ed 3f 3d
       -0.008840826 0.02512084 -0.038921602 0.04685781
0000f0 79 72 cd bb 34 28 25 3c ef cd 38 ba b4 ce 0a 3d
       -0.0062697497 0.010080386 -0.00070497295 0.033888534
000100 70 60 8f bd aa fb 84 bd c2 05 83 3c dd c4 38 bd
       -0.07000816 -0.064933136 0.015993956 -0.04510962
000110 0d e9 d3 3b dd 35 b6 3d 4a d7 82 3d 8a a4 27 3b
       0.006466991 0.08896992 0.063887194 0.002558025
000120 8a dd 6a 3d b3 33 12 3d 92 3c 6d 3d 4d 3a e8 bc
       0.057340182 0.035693835 0.057919092 -0.028348112
000130 83 dc b7 b9 87 60 11 3d e9 35 35 3c 0c 09 14 bc
       -0.00035068774 0.035492446 0.011060216 -0.00903536
000140 07 0a c1 3b d9 eb ce 3c b2 a2 7d bd 74 aa 3a 3d
       0.005891088 0.025258945 -0.061922736 0.045572713
000150 96 f3 f3 3c 50 57 c4 3d 1d 02 62 3c 16 16 59 bb
       0.029779237 0.09586966 0.013794449 -0.0033124737
000160 f4 b1 74 3a 2f 4a 55 3d c3 68 e6 3b 5d 2a f0 bb
       0.00093343784 0.0520727 0.0070315315 -0.007329269
000170 46 ab 91 3d ac f4 85 3b f5 1c 3e 3d 00 35 ff bb
       0.07112746 0.004088005 0.046414334 -0.0077883005
000180 14 d5 b3 ba 6e 69 2e bb 3d ec 3b 3c 27 15 18 3d
       -0.0013720118 -0.0026613134 0.011469898 0.037129547
000190 a6 a5 6b 3c d3 ec ba 3c 3f b0 73 bd 2d 75 66 3a
       0.014382755 0.022818005 -0.059494253 0.0008791264
0001a0 a0 c1 80 3d 54 d3 6c 3d ed 46 8d 3d cb ae 1c 3d
       0.06286931 0.057818726 0.06898294 0.038252633
0001b0 fc db 5c 3d 78 e0 98 3d 7b 21 a3 3d 94 ef 3b 3d
       0.05392073 0.07464689 0.0796537 0.045882776
0001c0 37 e8 38 3d e3 94 45 3d f3 f5 9b bc ce ba 61 bd
       0.045143332 0.048237693 -0.019038176 -0.05510979
0001d0 b6 d0 af 3c cb c6 34 3d 86 6b b3 3d 6b 25 ab 3d
       0.021461826 0.044134896 0.08760743 0.08356746
0001e0 a6 02 72 3b 4a e0 97 3c 45 44 bb 3c 9f f9 83 3d
       0.0036927848 0.018539567 0.022859702 0.06444096
0001f0 90 4f ee 3c b8 4b 85 39 0a d6 ac bd bd 75 70 3d
       0.029090673 0.00025424152 -0.08439262 0.058706034

network_body.linear_encoder.seq_layers.0.weight f4 [128, 6]
000000 4b 31 b9 3e 26 60 1e be 88 65 30 3e 85 27 1f bf
       0.3617042 -0.15466365 0.17226231 -0.62169677
000010 c6 f6 33 be 89 27 c9 bd 71 b4 a8 3c e7 05 86 bc
       -0.17574605 -0.09821994 0.020593854 -0.016360236
000020 af f7 d5 3e 2d cf 59 3c 1b ac 80 be 72 ec e5 be
       0.4179053 0.013294023 -0.25131306 -0.44906956
000030 8f 20 31 bf fd e2 39 3f e8 e3 cb bd b3 6b 23 be
       -0.69190305 0.7261198 -0.09955579 -0.15959053
000040 64 4f 12 3e 83 28 a1 be c5 94 1d 3f f8 2f 48 be
       0.14288098 -0.3147622 0.6155513 -0.19549549
000050 8d 16 a8 3f 42 9b 3e bf c9 b0 8b be 86 0a 04 3e
       1.3131882 -0.74455655 -0.27283314 0.1289464
000060 ba 49 d1 3b 16 4d b3 3e 04 f0 2a be 1e ce 25 3e
       0.0063869627 0.3501975 -0.16693121 0.16191909
000070 dc f4 06 3f d9 98 81 3d ba b9 53 3d 00 a9 28 bf
       0.52717376 0.063279815 0.051690795 -0.65882874
000080 02 b0 d6 3e e1 b8 60 bf 4b 4f 06 3e d1 96 0d 3f
       0.41931158 -0.877821 0.13116185 0.5530825
000090 ea c0 80 bd 04 b6 21 bd 7d 7f a9 bd 05 71 09 3f
       -0.062867954 -0.039480224 -0.082762696 0.5368808
0000a0 81 10 51 bf 30 f4 9d 3e 60 ad ac 3e 73 b7 9d 3e
       -0.8166581 0.30850363 0.33726025 0.30804023
0000b0 31 58 d0 3e 61 db 85 3c b0 d2 8d bd c2 99 25 bf
       0.40692285 0.01633996 -0.06924951 -0.6468774
0000c0 53 82 fa bd 8c e8 38 be e8 18 a1 3e f8 2c 04 bf
       -0.122318886 -0.1805746 0.31464314 -0.51631117
0000d0 cd 68 1f 3d 72 85 8d be 23 43 0c be 16 5f 1c 3d
       0.038918305 -0.27640873 -0.13697486 0.03817662
0000e0 a5 c2 17 bf fb a4 74 be 9c 32 12 3f 61 0a 11 3e
       -0.5928138 -0.2389106 0.57108474 0.14164115
0000f0 ec 54 41 bf 93 2f 6b bf 84 c6 8d 3e 29 1f 59 bf
       -0.75520205 -0.9186947 0.27690518 -0.8481317
000100 14 68 55 3e d2 3d 19 3e 96 0a 01 be 86 7c 43 3c
       0.20840484 0.14964989 -0.12601694 0.011931544
000110 ce 25 38 3e cb 4b d2 be bb 1a 64 bd 38 01 df 3c
       0.17983171 -0.4107345 -0.055689555 0.02722226
000120 5c 2f 1b bf 91 3e e5 3e 5c ff 54 bf 4f c8 e8 bd
       -0.6061914 0.44774297 -0.8320215 -0.11366331
000130 be 8a 92 be 66 7a 3b be 4b 9c 17 be 13 82 89 3e
       -0.28621477 -0.1830841 -0.14805715 0.2685705
000140 37 0b 2f 3f 14 91 58 bf eb 3e 2f bf 72 5d 36 bd
       0.6837649 -0.8459637 -0.6845538 -0.04452271
000150 a9 f1 56 be c2 28 d5 3e 23 15 b7 3c 9d 44 ad 3e
       -0.20990624 0.41632658 0.022348946 0.3384141
000160 d3 2d 64 3d 83 fa 97 3e 1b c8 06 3f dd 12 2b bf
       0.055707764 0.29683313 0.52649087 -0.6682566
000170 26 81 1a 3f 7a 2b e8 bb 09 0b 3d 3f e8 9a 1f be
       0.60353315 -0.007085261 0.73844963 -0.15586436
000180 62 0b 60 3e 53 c9 8a be cf 41 a6 be 37 2d 94 3e
       0.21879342 -0.27106723 -0.32472083 0.28940746
000190 43 a7 3a be 7e a3 12 3f 29 d9 1e bf 6e cb 79 3f
       -0.18227868 0.5728072 -0.6205011 0.97576034
0001a0 dc d7 fc bd f6 f2 6c 3e 46 08 44 3d 40 d7 e3 3b
       -0.123458594 0.23139557 0.047859453 0.00695315
0001b0 fa 52 88 3c 85 1e 8c be 74 55 d7 3e a3 c6 64 be
       0.016641129 -0.27367035 0.42057383 -0.22341399
0001c0 4b 69 49 3e dc e3 2c bd 1c 01 1b be 69 b7 f9 be
       0.19669072 -0.04220949 -0.15137142 -0.48772743
0001d0 27 48 ee bd 63 de 79 3f f4 11 2b bf a0 a8 63 bc
       -0.11634856 0.9760496 -0.6682427 -0.013895184
0001e0 32 ae 97 bd cf 77 a1 3e 73 dc bb be 6e 73 07 3e
       -0.07406272 0.3153672 -0.36691627 0.13227627
0001f0 a1 c2 de 3d 50 3e 72 3f e0 94 12 3e cb f5 e9 3e
       0.10876966 0.9462633 0.14314604 0.45695338
000200 cf 71 80 bd ce 25 19 bf 29 1c a1 bf 2e e5 63 3e
       -0.06271707 -0.5982331 -1.2586719 0.22255394
000210 12 e8 bb 3e c8 9d 6b 3f 1c 16 11 be 6e e9 96 3d
       0.36700493 0.9203763 -0.1416859 0.07368742
000220 9e 19 2e bf 35 67 77 be 19 e1 16 3e 84 45 16 3f
       -0.6800784 -0.24160464 0.14734305 0.5869982
000230 1b 26 da be 18 31 9e 3e e3 4a 93 3e 89 8d 46 be
       -0.42607197 0.3089683 0.28768072 -0.19389929
000240 5d 80 9f 3f d5 a6 35 bc 36 5d 71 be 67 c8 cb be
       1.2461048 -0.011087139 -0.23570713 -0.39801332
000250 2a 4c 10 3f 8f 94 da 3e ae cd 79 bd 5a 39 00 3f
       0.5636622 0.42691466 -0.060987167 0.5008751
000260 e0 98 0b 3e 2e 60 d1 bd cd 74 87 be d9 d5 ec be
       0.13632536 -0.10223423 -0.264563 -0.46256903
000270 e4 cd 5d 3e 81 c0 52 bf 31 25 58 3e 34 f1 a9 3c
       0.21660572 -0.8232499 0.21107937 0.020744897
000280 ec ef 5b 3e e3 11 fa be 7e a0 1a be f0 45 fd 3e
       0.21478242 -0.4884177 -0.15100285 0.4946742
000290 de ef 98 bf 23 e3 f8 be ad fd 81 bf d7 d0 87 be
       -1.1948202 -0.48610792 -1.0155541 -0.2652652
0002a0 ac 77 03 3e f4 70 3c be 8b 5a 73 be a2 9c ba 3e
       0.1283862 -0.18402463 -0.23765008 0.36447626
0002b0 39 48 2f be 26 6f 8e 3e 00 20 84 3d 2a 5c 44 3e
       -0.17117395 0.27819175 0.06451416 0.19175783
0002c0 cc b5 77 bf ad 5b 0a bf e1 56 e3 be a5 45 b8 3d
       -0.96761775 -0.54046136 -0.4440222 0.08997659
0002d0 c6 7a 97 be 44 67 16 bf 2c 6d 8a 3e b4 94 5a be
       -0.29585856 -0.5875132 0.27036417 -0.21345788
0002e0 bb 49 f2 3e 9c 4f 55 3c d2 83 d1 bc 7e 47 b1 bd
       0.47321877 0.013019469 -0.025575552 -0.08656214
0002f0 8b cf a3 bd bd 5e 0b bf fd 1a e7 be 65 e9 c5 be
       -0.0799857 -0.54441434 -0.45137778 -0.38654628
000300 ff 65 a2 3f 78 28 7b bd f9 37 1f 3f b8 50 c9 3e
       1.2687377 -0.06131789 0.6219478 0.39319396
000310 f6 be 06 be 35 d4 89 3c 8a 95 a2 be 73 b5 84 3d
       -0.13158783 0.016824821 -0.31754714 0.06479921
000320 7e ea c0 3e 30 22 6a 3e 3f dc 66 3c 2b ee d4 be
       0.37678903 0.22864604 0.014090597 -0.41587958
000330 32 cb 72 be 10 2a a2 be 1b 6d 0e bf 39 51 49 be
       -0.23710325 -0.31672716 -0.5563523 -0.1965989
000340 8f 2c c6 be b8 d7 0f 3f 3e 41 b1 be ed 8d 2f bd
       -0.3870587 0.56188536 -0.34620088 -0.04285996
000350 bd a6 f2 be 91 8f 36 bf 79 77 d2 3e fb 7a 5b bf
       -0.47392836 -0.71312815 0.41106775 -0.8573453
000360 41 66 1e be 4f 75 eb 3e e4 4e 61 3e 6e 08 d4 be
       -0.15468694 0.45987937 0.2200275 -0.4141268
000370 b4 fb 09 3f 6b c5 ac 3c 58 f4 64 3b 72 38 5e bf
       0.53899693 0.02109023 0.003493568 -0.8680488
000380 e4 19 0c 3e 2b 61 2d bf a0 44 97 3d cd b1 66 3f
       0.13681751 -0.6772639 0.07386136 0.9011505
000390 13 f6 1e bf 63 79 1c 3f e8 b0 bc be 0a 63 6a 3f
       -0.6209423 0.6112272 -0.3685372 0.9155737
0003a0 59 5d 1c 3d 0c 5e 83 3e 9b 7d ab bd a2 84 a3 3e
       0.03817496 0.2565769 -0.08373567 0.31937128
0003b0 2e 84 d2 bb 9f 0d 83 bf 97 40 2c bf 3f 22 03 3f
       -0.0064244485 -1.0238532 -0.67286056 0.5122413
0003c0 41 3d 57 bf 1c 2e 98 be 31 27 00 bf e1 b1 6c 3f
       -0.8407784 -0.2972268 -0.500598 0.9245892
0003d0 bc 49 b5 be ed 15 9e bf cb d8 de 3d d5 9a 30 be
       -0.35407817 -1.2350441 0.10881194 -0.17246564
0003e0 d5 0d 72 be e2 fc 2a bf 1a d2 d0 3e ed 2a 92 3e
       -0.23638089 -0.6679212 0.40785295 0.28548375
0003f0 d6 ab 6a be a8 cf 6c 3d 90 a8 9b 3d 1e b5 12 be
       -0.22917113 0.057815224 0.0760051 -0.14326903

network_body.linear_encoder.seq_layers.2.bias f4 [128]
000000 92 02 4f bb fc 59 75 3d 84 ec 6f 3d c8 a2 d2 3c
       -0.0031587225 0.05990027 0.05857517 0.025712386
000010 76 ce 1d 3d 33 d2 4a 3d 49 27 48 3d d8 a6 7f 3c
       0.038526975 0.049516868 0.04886559 0.0156037435
000020 1f 0e 1b 3c 4f 68 20 3b e9 10 9f bb 34 42 5d 3d
       0.009463816 0.0024476235 -0.004854311 0.054018214
000030 81 da cb 3b ee 2c 1b 3d 32 8c 20 3d a7 a1 f3 3c
       0.006221116 0.037884645 0.0391962 0.029740168
000040 df b7 3d 3d 2a 43 2b 3d 03 a9 07 3d 05 1c 29 3d
       0.04631793 0.0418121 0.033120167 0.041286487
000050 4b dc 29 3d 0a 1e 7f 3d 1d df bf 3c 25 a3 94 3c
       0.041469853 0.062284507 0.023421818 0.0181442
000060 e4 03 81 3d 0d be a4 3c 97 74 4c 3c d3 c6 41 3d
       0.0629957 0.020110155 0.012478969 0.047308754
000070 e1 74 bc 3c c9 93 25 3d 8e 49 94 3c 47 b0 02 3d
       0.023004951 0.040424142 0.01810148 0.031906392
000080 a7 15 a0 3c 0c 87 54 3d fc bf e5 3c 10 05 05 3d
       0.019541575 0.051886603 0.028045647 0.03247553
000090 74 07 37 3d 30 e3 26 3d 67 3f 32 3d 77 76 3d 3d
       0.044684842 0.040744007 0.043517496 0.046255555
0000a0 c3 4c f5 3c 10 ca 05 3d e5 7c 18 3d b5 aa 60 3d
       0.02994383 0.032663405 0.037228484 0.0548503
0000b0 dd 05 02 3d 60 da 6b 3d 53 86 0b 3b ce 8b ce 3c
       0.031743873 0.057581306 0.002128978 0.025213148
0000c0 28 15 04 3c c5 4e 95 3c 0d 8a 3f 3d 39 5b 82 3c
       0.008061685 0.018226037 0.046762515 0.015912639
0000d0 03 94 43 3d ec 60 c1 bb fe 58 e3 3c d9 4f 4f 3d
       0.047748577 -0.0059014466 0.027752396 0.050613258
0000e0 45 41 cb 3c a4 df 07 3d 98 ab 0f 3d d1 31 2f 3d
       0.024811396 0.033172265 0.035075754 0.042772118
0000f0 fd a1 fe 3c 9c 1b 1f 3d 39 25 24 3d bb 8d c9 3c
       0.031083101 0.03884469 0.04007456 0.024603715
000100 b9 ef a0 3c 4d 23 2d 3d ff 5c 25 3d 09 04 d8 3c
       0.019645559 0.042269994 0.04037189 0.026369112
000110 84 39 9b 3c 2c a6 e1 3c 6c be c8 bb 76 d2 46 3b
       0.018948324 0.027545057 -0.0061262157 0.0030337847
000120 34 00 93 3c 36 d4 68 3d 6a ea bf 3c ce c6 f8 3c
       0.017944433 0.056843005 0.023427207 0.030368235
000130 3e 7d 8b 3d 24 f1 04 3d 4e 59 37 3d ee 44 19 3d
       0.068109974 0.032456532 0.044762902 0.037419252
000140 e7 d8 1a 3d c1 ce ce 3c ba 28 8f 3d cb eb 61 3d
       0.03780451 0.025245072 0.0699019 0.05515651
000150 77 1e 63 3d 87 55 12 3d f7 ca 92 3c 2f 89 28 3c
       0.055448975 0.035726096 0.017919047 0.010286613
000160 b6 70 57 3d 9e 72 9f 3d ec ec db 3c ef aa a2 3b
       0.052597724 0.07785533 0.026846372 0.0049642245
000170 cb 69 84 3d e3 70 64 3d d6 f4 ca 3c 4b eb 83 3d
       0.06465491 0.05577172 0.02477495 0.06441363
000180 74 f9 1e 3d ad 9a 0a 3d 7b 29 ca 3c d5 38 82 3c
       0.038812116 0.033838917 0.024677983 0.01589624
000190 0f fb 17 3d ac cd 83 3b 3f 64 18 3c 28 1e 80 3b
       0.037104663 0.0040223207 0.009301244 0.003909845
0001a0 c8 45 4c 3d 86 22 f6 3c 95 22 48 3d ab 59 e8 3c
       0.049871236 0.030045759 0.048861105 0.02836307
0001b0 e2 4e 02 3d 07 1b 32 3c c4 eb ea 3c d9 6d 7a 3d
       0.03181351 0.010870702 0.028676875 0.061139915
0001c0 f8 50 45 3d 8d 1e a7 3c 87 38 37 3d 67 c5 b4 3c
       0.04817292 0.02040031 0.044731643 0.022066785
0001d0 cd 69 07 3c a4 67 92 3d f9 86 e6 3c 27 f3 ea 3c
       0.008264971 0.07148674 0.028140532 0.028680397
0001e0 fe f9 cf 3c 1d b2 64 3d eb c9 51 3c 03 18 09 3d
       0.02538776 0.055833925 0.012804489 0.033470165
0001f0 32 bc ec 3c 03 dc 1c 3d 83 f9 9e 3c b6 78 90 3c
       0.028898332 0.038295757 0.019406086 0.017635684

network_body.linear_encoder.seq_layers.2.weight f4 [128, 128]
000000 bb e7 07 be 12 87 93 bd 86 e1 77 bd f5 7f 80 bd
       -0.13271992 -0.07203497 -0.06051781 -0.06274406
000010 81 54 e1 3d ba 6e 27 be 72 93 af bc a1 a2 4a bb
       0.11002446 -0.16350833 -0.021432612 -0.0030919688
000020 0f ce 10 be 71 5b 13 3e 70 5b 09 be 2a 8d 84 bd
       -0.14141105 0.14390351 -0.13413787 -0.064722374
000030 14 42 07 bd 76 8e 06 3e 40 a8 8c bb 84 5e 94 3d
       -0.033022 0.13140282 -0.004292518 0.0724459
000040 66 ce 83 3d a9 98 0b 3d b9 9b 9e bd da bc f7 3c
       0.06435852 0.034081135 -0.077445455 0.030241419
000050 e5 40 92 bd 1f 5b 83 3d a8 3f 62 bd 76 c6 65 bd
       -0.07141284 0.06413864 -0.05523649 -0.05609747
000060 b8 58 ec 3d e5 1b 78 3c ac ca ae 3d d5 4c e1 bd
       0.11540359 0.015143369 0.0853475 -0.11000983
000070 39 fe 01 ba 34 57 c5 3d 22 8b 0b 3d c6 43 03 3e
       -0.00049588416 0.09635773 0.034068234 0.12818822
000080 ed 3f c8 bc 09 ca b6 bd c9 18 06 be 44 1e 0a 3e
       -0.024444545 -0.08925254 -0.13095392 0.13488108
000090 3c 77 34 bd 24 98 87 bc 30 fa 98 bc 9e 4e 0a bd
       -0.044059023 -0.016552038 -0.018673986 -0.03376638
0000a0 81 4d 9c bd d8 8a 1a 3d f7 45 6d 3d 0b b9 ba bc
       -0.0763197 0.037730068 0.05792805 -0.022793313
0000b0 ed fa a3 bc ce b4 50 3d 0b ba 2a be 12 96 98 bd
       -0.020017112 0.05095368 -0.16672532 -0.07450499
0000c0 be 09 b9 3d 93 9a ab bc e6 c1 f0 3c 39 85 26 bd
       0.09035061 -0.02094773 0.029389333 -0.040654395
0000d0 29 92 ac bd 65 44 94 bb 37 44 4a 3e eb eb ad be
       -0.08426315 -0.004524755 0.19752584 -0.33969054
0000e0 f7 fb 0d be 99 55 a7 bd 2a 1d 0d 3d ee 5a 8e 3c
       -0.13865648 -0.08170623 0.03445164 0.017377343
0000f0 c5 6a 07 bd 24 df 26 bd ac d0 28 bd f6 a0 d5 bc
       -0.033060808 -0.040740147 -0.04121463 -0.026077729
000100 c3 2f cf bc f1 24 89 bd 29 2f bc 3d 77 38 0e bd
       -0.02529133 -0.06696499 0.091886826 -0.034721818
000110 ab 5f 6b be 41 82 07 3d 57 75 1d 3e 22 7d 0d 3e
       -0.22985713 0.033083204 0.15376793 0.13817266
000120 26 2b fa 3d 16 b5 89 3d 3e 11 a5 3b 23 0b ca bc
       0.12215261 0.067239925 0.005037456 -0.024663514
000130 81 da c8 bd 44 06 01 be 54 7d 81 3c f7 99 ac bd
       -0.09807301 -0.12600046 0.015806831 -0.08427804
000140 98 98 14 3e c6 15 ba bd d0 14 24 3b 7f 8a 08 3d
       0.14511335 -0.09086184 0.002503682 0.033335205
000150 a6 d2 93 bd 5d c5 08 3c 74 13 c6 bd ae c8 fb 3b
       -0.072179124 0.008347836 -0.09671679 0.007683835
000160 b5 2f cb bc 21 38 16 bd e5 56 e6 bc fb d3 8a 3c
       -0.024803022 -0.036674622 -0.028117606 0.016946783
000170 8e 7e d3 bd 67 71 0f 3d 7f 0a f1 3d a8 9b ef bc
       -0.10326873 0.03502026 0.1176958 -0.029249027
000180 51 38 45 3d ba db f0 bd 14 f7 af 3d 12 ce 1a bd
       0.04814941 -0.117606595 0.08592048 -0.03779418
000190 8b 38 3f 3d db 84 0a bd 9e 20 a8 bc 68 2d bc bd
       0.046684783 -0.033818107 -0.020523366 -0.09188348
0001a0 4e f3 33 bd a7 8f 94 bd eb e2 40 3d b2 69 03 be
       -0.043933205 -0.07253962 0.047091406 -0.12833288
0001b0 27 d3 d2 3d 89 95 8e bc a3 f7 97 be fe e7 ba bd
       0.1029418 -0.017405288 -0.2968112 -0.0912628
0001c0 f0 b8 1f 3e 4d b1 a1 bd 81 df 3b 3c 53 21 80 bd
       0.15597892 -0.078951456 0.011466862 -0.06256356
0001d0 b1 e2 07 bd a4 e1 8d bc 49 63 bf 3c 0e 5a d6 bd
       -0.033175174 -0.017319508 0.023362773 -0.10466395
0001e0 d5 c2 0f bd d9 5d 00 be 27 31 cf bd 46 12 41 3d
       -0.035097916 -0.125358 -0.10116797 0.047136568
0001f0 dc 95 50 3e 68 d9 6b 3e 18 a4 09 be 63 42 f9 3b
       0.20369667 0.23032153 -0.13441503 0.007606791
000200 0d e9 a4 3c 8e 65 89 bd 8a 76 52 3d 9c 08 65 3d
       0.020130659 -0.06708823 0.05138258 0.055916414
000210 0d db 06 3e bf 83 12 3d 32 a5 d9 bd f8 b7 b5 3d
       0.13169499 0.035770174 -0.10627212 0.0887298
000220 25 68 f5 bd 9b 63 7f be b1 83 8d bd b6 d2 01 3e
       -0.119827546 -0.2494034 -0.06909884 0.12678036
000230 cb 3f 80 bd 43 02 33 3d 0b a2 43 3e 7c 23 dd 3d
       -0.062621675 0.04370333 0.19104783 0.10797784
000240 0f 62 fe 3c 78 c2 10 be 80 25 30 3d 24 eb 45 3d
       0.031052617 -0.14136684 0.043004513 0.04831995
000250 cd 3b 4b be 8c d9 46 be 64 99 b6 3c ab f2 1f 3d
       -0.19847031 -0.19418925 0.02228994 0.039049786
000260 37 49 ff bd 67 5a f7 bc 89 40 71 3e 1d ec 76 3d
       -0.124651365 -0.030194474 0.23559774 0.06028377
000270 49 f0 26 3e 9c a5 3d bd 27 70 08 3e 73 62 84 3d
       0.16302599 -0.046300516 0.13324033 0.0646409
000280 40 4c 7a 3e b2 1a 81 3d 21 a5 14 be 25 f2 f2 bd
       0.2444315 0.0630392 -0.14516117 -0.11862592
000290 a7 a5 64 bd 68 f5 ad bc 91 be 8b bd 19 c5 c6 bd
       -0.05582204 -0.021235183 -0.06823457 -0.09705562
0002a0 d3 6d 58 bd 10 0d c9 bd 5e 3b cc 3d 15 6d e1 bd
       -0.05283911 -0.098169446 0.09972261 -0.11007134
0002b0 39 fb 3e 3e af 6a 19 3c 7f c7 29 3d a8 fd 21 3e
       0.18650521 0.009363814 0.04145002 0.15819418
0002c0 59 95 06 be 99 fd ef ba 79 e1 24 bd ef 5e 10 be
       -0.13142909 -0.0018309831 -0.04025409 -0.14098714
0002d0 7b 70 b1 3c 05 2b 0b be 87 b7 87 be 52 f9 a5 3c
       0.02166008 -0.1359063 -0.26507208 0.020260487
0002e0 6d ce 02 bd 57 cf 30 bd cd 3b 54 bd 4a 88 57 bd
       -0.031935144 -0.043166485 -0.051814843 -0.05262021
0002f0 9d 71 0f 3e 11 26 03 bc 45 dd 5e be d5 e5 1b be
       0.14008184 -0.008004681 -0.21764095 -0.15224393
000300 fe 94 fc bd 0a 9f ff bd d9 30 8f bd 94 23 19 be
       -0.123331055 -0.12481506 -0.06991739 -0.14954978
000310 9b 37 27 bd 30 38 8c bd 99 a0 82 3d 22 ba a4 bd
       -0.040824514 -0.068466544 0.06378288 -0.080433145
000320 fd f1 41 be 95 e6 bd 3c 82 3f 5a bc 4e 05 14 3e
       -0.18939967 0.02318124 -0.0133208055 0.14455149
000330 cd f6 c7 bd f3 f0 fa 3b 44 f3 02 bd 51 91 0b bd
       -0.097638704 0.007658118 -0.031970277 -0.03407413
000340 2f 4e cf 38 7e 4f 2e bd 9a 7e af bc ac 5b 18 bb
       9.885092e-05 -0.04255628 -0.021422673 -0.0023248
000350 22 77 b1 bd 16 f6 5b bd 1e 6f 9e bc 30 f7 aa bd
       -0.08665301 -0.053701483 -0.019340094 -0.083479285
000360 71 68 5b 3d 20 b4 a2 bd 07 23 b2 3d 10 f2 4c bc
       0.0535664 -0.07944512 0.08698087 -0.012508884
000370 0c 70 05 3e be 42 2d be 89 cd 91 bc 9d 0e db 3d
       0.13031024 -0.16919991 -0.017798202 0.10696147
000380 5e 37 69 3a 76 e4 31 be b2 20 5b 3d 74 04 01 3e
       0.0008896495 -0.17372307 0.053497978 0.12599355
000390 ec 8a e4 bd 7e 76 b6 3d e8 08 06 3e 3a 1a f9 3c
       -0.1115931 0.08909319 0.13089335 0.030408014
0003a0 f5 ce a6 3d 70 b3 15 be 38 b4 ec 3d c8 2a 85 3a
       0.08144943 -0.14619231 0.115578115 0.0010159845
0003b0 01 77 3f 3e 1a 65 27 be fc 0d a1 3d 79 f4 39 bd
       0.1869774 -0.16347161 0.078639954 -0.045399163
0003c0 9c 56 4a bd b6 80 eb 3d bb c2 26 3d 6e b9 54 bc
       -0.049399003 0.11499159 0.040713053 -0.012983663
0003d0 9b c1 30 be 57 93 13 bb de c5 27 bd cb 48 89 3e
       -0.17261355 -0.0022518241 -0.040960185 0.2681335
0003e0 ff 06 46 3e 55 ad db bc bf db 44 3e 2b ea 71 3d
       0.19338606 -0.02681605 0.19224451 0.05906121
0003f0 b7 3b 9b bd 40 29 e5 3c f0 a0 db 3c 7b ac c3 bb
       -0.07579749 0.027973771 0.02681014 -0.005971489
