SmartTrafficLights/Assets/TrainingModels/2 colori/from colab/SmartLight_goodTry_2.onnx (onnx, 72703 bytes, 6 tensors)

distribution.branches.0.bias f4 [2]
00000000: 58a6 9a3a 58a6 9aba
0.0011798842 -0.0011798842

distribution.branches.0.weight f4 [2, 128]
00000000: 019f b0bd 8e0b 3e3d f9f8 643d bef2 683d
00000010: 6505 5fbc c0b6 2bbd 3b0e ae3c 6103 8a3d
00000020: 7728 803d a8e5 8c3d f4b0 85bd 4246 473d
00000030: 7181 623d 88d3 5a3d 6843 053d 4607 8e3d
00000040: ed3f 743d 27f0 f0bc c9ff 83bd 74be 06bd
00000050: 1b5a 5abd d7aa 83bd 410c 0abd 540f 27bd
00000060: 99a8 6e3d f35f 823d 88d5 84bd 4e72 acbd
00000070: 7bcd 3ebd 73a4 2cbd 87cb 6f3d 2724 443d
00000080: 60e8 94bd 8774 92bd 43bd b33d 8e27 7a3d
00000090: 1193 94bd 56e0 4b3d dcb7 7f3d 8006 66bd
000000a0: 6d2b 173d 3c1e 36bd cd80 fdbc ba51 75bd
000000b0: 85a6 70bd 9e11 8abd b4b4 89bd 56ae 93bd
000000c0: c2fc 8f3d c333 62bd 41a3 4e3d de58 2b3d
000000d0: cb3e 9d3d 1239 0b3d dbc0 833d c777 853d
000000e0: 7522 8fbd f77d 79bd f168 ab3d a045 18bd
000000f0: a14e 90bd be3e 343d 5eef 57bd 9437 78bd
00000100: a0ed 993d d57f 433d 09a8 7dbd fdee 1e3d
00000110: d47f a73d 059f 86bd 7d9f a6bd fff9 3f3d
00000120: e739 4bbd b99e 83bd 87ea 5e3b aaa8 853d
00000130: 4049 b7bd 41db 5ebd d610 0abd 0088 46bd
00000140: 7e11 9b3d 2747 aa3d d6da 3f3d 32bf 7abd
00000150: 1a9f 20bd 91c6 4ebd 09d0 23bd 7a02 8cbd
00000160: 80e5 a1bd 92b9 97bd 4e4e 67bd a594 443d
00000170: ecb5 77bd 12c5 2f3d 190f 28bd e3c2 0e3d
00000180: 87cd 78bd 8194 43bc b6fb 71bd 12e0 adbd
00000190: 2eb8 fdbc a0bb 783d e2e7 2b3c cc02 833d
000001a0: aa4a 6cbd 6daf 4b3d 3400 6cbd c74c 153d
000001b0: ad86 89bd 8b0f 9cbd 659a 033d 471a ffbc
000001c0: e286 88bd db7d c93c 5259 febc fed4 7c3d
000001d0: a6b6 c63c becb acbd 9c44 96bc 2cc2 7bbd
000001e0: d62d 8d3d 4d33 5e3d 0f9f 8e3d b918 0e3d
000001f0: 75fb 793d 0201 bd3c 8c37 833d f9c9 103d
00000200: 84b5 be3d 784a 45bd 16ac 55bd 82a3 38bd
00000210: ffbc f13c edcc 303d 18fb 63bc c3e6 70bd
00000220: bf1c 79bd fb0f 77bd 3e67 603d 694d 03bd
00000230: b714 aebd 2f3e 0abd 75b8 46bd e778 65bd
00000240: 57ba b7bd 3682 ab3c 34e4 853d bd85 1a3d
00000250: ccf2 a13d c54c 893d 32a7 0f3d 4487 513d
00000260: 2015 0dbd 3a27 80bd 90a2 993d 6107 993d
00000270: 7546 0a3d 0b30 8e3d 320a 39bd d4c0 77bd
00000280: b405 283d ad92 8e3d 4f61 8bbd 9a9c 89bd
00000290: d1a8 9d3d be38 8bbd 4bcb 56bd 488f 873d
000002a0: 090b 02bd b27e 883d 9b4a 2c3d f1e8 613d
000002b0: 4be6 473d 2483 9f3d 5167 893d d87d 7c3d
000002c0: 1e5a 8ebd 8a0f 5d3d b998 80bd 2389 13bd
000002d0: 46ed 5dbd da0f 1cbd fee2 94bd f78c 63bd
000002e0: 3965 823d 837a 6f3d 58e2 77bd 65f4 3d3d
000002f0: 0761 903d bb48 f2bc c18d 963d 604d 2a3d
00000300: 283f 9abd 98ea 70bd 317e 873d 882b 40bd
00000310: 1e0c 86bd aca5 8e3d 4a02 973d adec 8fbd
00000320: 2249 843d cfcd 863d 2313 c9bb 3782 47bd
00000330: 8df8 773d d8ab 253d 6b1c 043d 6080 893d
00000340: c418 97bd e5e0 a4bd 45e3 e2bc 8888 5f3d
00000350: 972a de3c e547 123d 7762 613d d536 903d
00000360: 31af ce3d 18ac 873d 3649 773d 8c84 7fbd
00000370: d45c a23d 2842 7cbd f7b9 5f3d b5c6 03bd
00000380: 2f29 863d 7ef4 9f3c cbcc 393d fb4d 5f3d
00000390: ad15 443d 248c 96bd 7eda b1bc 6212 6bbd
000003a0: 5641 943d 37e3 81bd 8a76 943d e5d8 20bd
000003b0: f851 893d 1524 873d 66eb 07bd c784 373d
000003c0: d63c 8b3d 258f 70bd 34b3 453d e0c9 7cbd
000003d0: 1af7 d1bc 44b9 b13d d0b8 de3b a694 923d
000003e0: a312 79bd ec6d 8cbd dcb7 77bd 1ea4 15bd
000003f0: 1f9d 76bd 34a4 d9bc 089b 70bd 8502 47bd
-0.086240776 0.04639774 0.0559015 0.056872122 -0.013612126 -0.04192233 0.02124702 0.06738926
0.06257718 0.06879741 -0.06527892 0.048650987 0.055299226 0.05342439 0.032534987 0.06934981
0.059631277 -0.029411389 -0.064452715 -0.032896474 -0.053308588 -0.064290695 -0.033703092 -0.040786102
0.058266256 0.06365957 -0.0648604 -0.084202394 -0.04658268 -0.04214902 0.05854371 0.04788604
-0.072708845 -0.07151132 0.08776333 0.06107288 -0.07254613 0.04977449 0.0624312 -0.056158543
0.03690665 -0.044462427 -0.030945206 -0.059892394 -0.058752555 -0.067416415 -0.067239195 -0.07210986
0.070306316 -0.055225145 0.05044866 0.041832797 0.076779924 0.033989973 0.06433269 0.06516986
-0.06988994 -0.060911145 0.08369625 -0.037175775 -0.07046247 0.044005148 -0.052718513 -0.06059988
0.075160265 0.047729332 -0.06192783 0.038802136 0.08178678 -0.06573299 -0.08135889 0.046869274
-0.049615767 -0.06426758 0.00340143 0.06526311 -0.08949518 -0.054408316 -0.033707462 -0.048469543
0.07571696 0.083143525 0.046839558 -0.061217494 -0.03921423 -0.050482336 -0.03999332 -0.0683641
-0.07905102 -0.074084416 -0.05647116 0.04799332 -0.06047623 0.04291255 -0.041030023 0.034853827
-0.06074288 -0.011937262 -0.05907794 -0.08490004 -0.030971613 0.06072581 0.010492297 0.06397018
-0.057688393 0.049727846 -0.05761738 0.036450174 -0.067151405 -0.07620152 0.032129664 -0.03114046
-0.06666352 0.024596145 -0.03104845 0.061726563 0.024257015 -0.08437298 -0.018343262 -0.061464474
0.06893508 0.054248143 0.06963932 0.034691546 0.061030824 0.02307177 0.06407079 0.035348866
0.09311965 -0.048166722 -0.052166067 -0.04507781 0.029509066 0.043164182 -0.013914846 -0.05881382
-0.06081843 -0.060317975 0.05478596 -0.032056246 -0.08500045 -0.03375071 -0.048515756 -0.056023505
-0.089710884 0.020936113 0.06537667 0.0377252 0.07907638 0.06704096 0.03507156 0.05115439
-0.034443974 -0.06257482 0.075017095 0.074721105 0.0337586 0.06942757 -0.04517574 -0.06048663
0.041021064 0.0696157 -0.068056695 -0.067193225 0.07698215 -0.06797932 -0.05243997 0.066191256
-0.031748805 0.0666479 0.042063337 0.05515379 0.04880361 0.07788685 0.06709159 0.06164345
-0.06950782 0.053969897 -0.062791295 -0.036019456 -0.05418136 -0.038101055 -0.07269858 -0.055554356
0.06366963 0.058466446 -0.060518593 0.04637565 0.070497565 -0.029575696 0.07351256 0.041577697
-0.07531577 -0.058817476 0.06615866 -0.046916515 -0.0654528 0.06965193 0.073734835 -0.07027564
0.064592615 0.065822236 -0.0061363145 -0.048708167 0.06053977 0.040447086 0.032253664 0.06713939
-0.073777705 -0.08050708 -0.027696261 0.054573566 0.027119918 0.035713095 0.055025544 0.070417084
0.10092009 0.06624621 0.060372554 -0.062382266 0.07927862 -0.06158653 0.05462071 -0.032171924
0.06550824 0.019525763 0.04536132 0.054517727 0.047872234 -0.073509485 -0.02171063 -0.057390578
0.07239024 -0.06342166 0.07249172 -0.039269347 0.067050874 0.06598679 -0.033183478 0.04480436
0.06798713 -0.058730263 0.048266605 -0.06171596 -0.025630523 0.08677915 0.0067969337 0.07157259
-0.06080879 -0.068569034 -0.060478076 -0.036533467 -0.060208436 -0.026567556 -0.0587416 -0.048586387

network_body.linear_encoder.seq_layers.0.bias f4 [128]
00000000: 285a 823d 3c32 823d f1ec 083d 2c06 87bd
00000010: 87ba 0a3d a7a2 ddbb da56 3d3d 76cb 17bc
00000020: 68c3 e0bc d2c2 7dbc 2a5b 0d3d 4136 68bc
00000030: 0b9f a43c b18b 6abd 5ad2 ef3b 5e40 323d
00000040: f711 3d3c c650 9a3c f9ad 5c3d 4938 9b3c
00000050: f797 073d 772d e43c e401 debb effa 2f3d
00000060: 6f05 733c e991 933c 53c8 b53d 55e3 8b3c
00000070: 35c7 443d 12b0 303d 10bb b13c 411a 953d
00000080: 701c 28bd 7fcd 0e3d 4323 043c 1514 4c3d
00000090: c0a2 35bc f9aa 5f3d 2cb9 0abc 8ca5 823d
000000a0: 0d93 f53c c208 873d b3d4 4fbb 5865 503d
000000b0: 6c55 be3c f0f5 3e3d aa5b e83b 91ba 663d
000000c0: f246 c93c 5a9e b53c 5709 473d 364b 4fba
000000d0: d4a9 95bb 5d0e f9bc 6352 26bc 7102 8bbb
000000e0: 4996 dd3c 98ce 40bd 15f9 3c3d c0a0 a538
000000f0: 8172 913c cecb d33c ee6a 2a3d d2b5 143d
00000100: d1fc bcbc 10c4 3b3d 6e92 6a3b 79be 093d
00000110: 37fb 653d 15c4 ffbb 1807 2c3d d2ee 6b3c
00000120: 3a3f 1a3c 75ba 233d caa8 8e3a d806 3e3d
00000130: 2690 d0bc 15c9 653d dfa3 383d 5600 363d
00000140: a98e 97bc 2a0e 933c 4407 c03d 2257 0d3d
00000150: 0cce 883d 3cdf 8c3d 18d6 f63c 6bf3 8dbc
00000160: f2d7 0d3d 9e59 e0bc 1aee 613d f8bf 163d
00000170: c62b 5f3c 67f2 043d c851 a7bc c0ea 343d
00000180: f19c 82bc f6bf 103c 455a e53c a4c1 663d
00000190: d30b 00bc 8d31 b03c e65b 1a3d a5d5 e33b
000001a0: b243 6c3a 019b 473d f725 9c3d 5099 b5bb
000001b0: a2b0 213d d3ec d73c bfb9 e23c 806a 283d
000001c0: 7e8d 333d 1361 a3bd 2d6b 803d ebce 073d
000001d0: 2ee3 d53c 695d 3cbb a9b4 1b3d 0948 253c
000001e0: 1b91 9d3d 7f0b 103c 4af8 993c 1ccd 423d
000001f0: df5d 243d d225 ed3c dccb 943b fe37 dd3c
0.06364852 0.06357238 0.03342909 -0.06592974 0.033869293 -0.0067637744 0.046225406 -0.009264817
-0.027436927 -0.015488343 0.03451077 -0.014173091 0.020095369 -0.057262126 0.007318777 0.043518417
0.011539928 0.018837344 0.05387685 0.018947737 0.03310391 0.02785371 -0.0067751277 0.04296392
0.014832838 0.018013911 0.088760994 0.017076174 0.04804154 0.043136664 0.021695644 0.07280398
-0.041042745 0.034863945 0.008065048 0.04982384 -0.011086166 0.05460641 -0.008467 0.06379232
0.029977346 0.06593467 -0.0031712472 0.0508779 0.023234092 0.046621263 0.0070910053 0.056330267
0.024569962 0.022170234 0.04859289 -0.00079076306 -0.004567364 -0.030402357 -0.010151478 -0.0042422344
0.0270492 -0.047072023 0.04613598 7.897755e-05 0.017754795 0.025854018 0.041605882 0.03630621
-0.023069771 0.045841277 0.0035792845 0.033628915 0.05614778 -0.007805357 0.041998953 0.014400201
0.009414488 0.03997274 0.0010884043 0.046393245 -0.02545936 0.05609997 0.045078155 0.044433914
-0.018500643 0.01795109 0.09376386 0.034506924 0.06679925 0.06878516 0.030131385 -0.017327985
0.03462977 -0.027386483 0.055158712 0.03680417 0.013621276 0.032457735 -0.020424739 0.044169188
-0.015943976 0.00883483 0.027997145 0.056337014 -0.007815319 0.021508003 0.037685297 0.0069529586
0.0009012773 0.048731808 0.07624429 -0.005541958 0.03947509 0.026358044 0.027676461 0.04111719
0.04383611 -0.079775 0.06270442 0.033156317 0.026109304 -0.00287422 0.038014088 0.010087975
0.07693692 0.008791803 0.018795151 0.04755889 0.040128585 0.028948698 0.0045409035 0.027004238

network_body.linear_encoder.seq_layers.0.weight f4 [128, 6]
00000000: 5422 783e 0896 d73d fc88 cb3e e4b3 793e
00000010: 6e3f d1be 0714 38bf de9e 0ebe 34c7 433f
00000020: 96c9 df3e 2876 653f 3684 28bd 43dc 5e3e
00000030: 1e6e d23d 6503 1bbd 15d4 643f 7474 14be
00000040: 5306 7b3e 3e48 08be f04d d33e 79b3 42be
00000050: f4d3 02bf 7bcc 27be 3ae5 cebe 118b bcbd
00000060: ea46 05bd c163 d83e 2359 61bf 7102 c6be
00000070: b9e9 00bf b180 143f 354c c23e ffa8 2a3f
00000080: b7af 7abe e14d 403e 61ce 46bf d362 d5bd
00000090: 0885 ae3e 9807 a2be 5c4d 51be 8859 fc3d
000000a0: f94e d93d 0fa9 023f bc5d 8e3e 3fb6 40bd
000000b0: e554 b7be 9c31 703e da67 043f 98d4 5bbc
000000c0: ef7e 0abf 3841 44be 6e84 ce3c 7245 0a3e
000000d0: f25a 133e fb80 16bf e356 853f 00ea 143f
000000e0: e361 a33e 4b53 da3e 41ff d6bd 0215 be3e
000000f0: ff6c 013f ad4e 923e 917c 8abf c417 d83e
00000100: 612c 203e e4d2 17bd 2c7f c73d 73b4 093f
00000110: c417 93be f1e4 323d 6648 0cbe ae0f a1bd
00000120: d82c 7cbf c6a6 b63e 7e15 14bf 0110 a63d
00000130: f778 45bf 967c 1ebd 5db5 6b3e cfc3 febe
00000140: 9711 b0be 6cf2 04bd 49a3 fdbe 31c6 093e
00000150: 6c84 f5bc 71e8 663e e2a7 0c3e 643d 6d3f
00000160: 5d55 90bf b7d9 80be 5291 06be a119 44bd
00000170: 8743 873c e1f8 b9bc 47f3 7d3f 241a 46bf
00000180: aafc aabd 31f0 e93e b7b3 a93e 12d0 273f
00000190: aafa 68be 55c6 e3be a2a8 1f3e 59e8 c63e
000001a0: 60f2 453d a044 b83e 8db9 1a3f 0ba7 123f
000001b0: d2a4 223e 0ec5 c03e d921 61be d573 943e
000001c0: 6a95 7d3d 0503 0c3a 5439 f53e e890 1f3f
000001d0: ba23 6f3e dd6c 8abe 57fd 213f ef27 b1be
000001e0: 72f2 6d3f ba70 37bd 4966 753f b027 b93e
000001f0: 0974 60bd 2dab 91be 1069 ddbe b4e7 973d
00000200: e26b 4dbc dd14 073f ee40 fa3e 88f1 783e
00000210: af3e bb3d 1da5 c93d 4fb5 5cbe d751 123f
00000220: 52e8 f6be f1ce f73c 6cde c8bd b78c f63e
00000230: b8ed 3d3d 402f 39be c0d2 b73d 1887 06bf
00000240: 772d a63e 1f53 a93e 6ba5 9abd af5e fe3e
00000250: 588b 56bf ff72 e83e e20e 1abf e486 973e
00000260: 9834 003f ffb3 ebbe 2e83 64bd 61d0 63be
00000270: 4137 c63e 1151 59bf 58f9 b43e e7a8 c3be
00000280: 9769 80be 3f41 503e 159f 023e 8fb7 cc3e
00000290: d277 6b3e 1684 8fbe fa4d 593f cae2 c3be
000002a0: 70b6 fb3d 9dfd dcbe ca67 143e c413 383d
000002b0: bff9 17be 9845 fabe 5815 84be eaf3 1cbf
000002c0: 2302 943e 5ebc 37bf 6bbb 4a3f aa6c 16be
000002d0: af7b 153f 770d 923e f62b 95bc 01aa 473e
000002e0: beeb 8c3c 8a7a c6be b8a8 ca3e 9f88 a03c
000002f0: 508f 50bd 8871 af3e 7019 2f3f a8a8 43be
00000300: ee09 f0bd 4a94 093c c05a 1cbf c770 4abe
00000310: 1f1c 8f3e 9069 ffbe 0710 f93d 59e4 873d
00000320: b020 48be 94b3 14bf 6e6d 903e 1571 2bbf
00000330: 08de a2bc df6e 423e 1532 373f 62b5 ba3d
00000340: 3ae5 13bc 00dc 473e 648a 1d3f 79fa 02bf
00000350: 0d33 33be fa5d 8abb 955c 8f3e c0c1 203f
00000360: 4f91 76be 3fa8 bcbe 128e cebe 7a5b be3e
00000370: bac9 7cbf 601f 32bf 8955 813b ddff 0bbf
00000380: c567 133f a903 253f bc5d b33c 79dd 2ebf
00000390: 0ac1 c33e 59af c93e aa88 05bf efcc e03e
000003a0: 2ef5 583d 9e30 bbbd 9fa7 aebe 1c1e 0c3f
000003b0: d0d0 2bbe 2748 173f 76ed 6fbf 513e dbbe
000003c0: 62df e6be 246a 923e 19e9 663f 6b09 833e
000003d0: e159 aa3d 583f 25bf 064f 01bf 0f89 9cbe
000003e0: 8ee3 81bf 4dce e13e 8171 623e 93a8 ef3e
000003f0: 44c4 f43e 96bc c2be d823 e3bd 1873 ab3f
0.24231845 0.10526663 0.39752948 0.24385029 -0.40868706 -0.7190556 -0.1392779 0.76475835
0.43708485 0.8963342 -0.04114171 0.2176371 0.102749094 -0.037845034 0.8938611 -0.14497548
0.24514131 -0.13308808 0.412704 -0.19013776 -0.51104665 -0.16386597 -0.4040926 -0.09206212
-0.032538332 0.42263606 -0.88026637 -0.38673738 -0.5035663 0.5800887 0.37948766 0.6666412
-0.24481092 0.18779708 -0.7765866 -0.1041924 0.3408587 -0.3164642 -0.20439667 0.12321764
0.10610766 0.5103921 0.2780589 -0.047048803 -0.35806957 0.23456424 0.51720965 -0.0134173855
-0.54099935 -0.19165504 0.025209632 0.13503054 0.14390162 -0.5879056 1.0417141 0.58169556
0.3191062 0.42641672 -0.104979046 0.37125403 0.5055694 0.2857565 -1.0819265 0.42205632
0.15641929 -0.037066355 0.09741053 0.5379097 -0.2872907 0.043675367 -0.13699493 -0.07864319
-0.98505926 0.35674113 -0.57845294 0.08108521 -0.771377 -0.038693033 0.23018403 -0.49758765
-0.3438842 -0.032457754 -0.4953864 0.1345451 -0.02997037 0.22549607 0.13735917 0.926718
-1.1276051 -0.25166103 -0.13141373 -0.047876004 0.016511692 -0.022701683 0.99199337 -0.7738364
-0.08348973 0.45691064 0.33144924 0.65551865 -0.22751871 -0.44487253 0.15591672 0.38849142
0.04832685 0.35989857 0.6043938 0.5728614 0.15883186 0.3765034 -0.21985568 0.28994623
0.06191007 0.0005341026 0.478953 0.62330484 0.23353472 -0.2703618 0.6327719 -0.3460078
0.9294807 -0.04478524 0.958592 0.36163092 -0.05479816 -0.2845091 -0.4324422 0.07417241
-0.012537928 0.5276621 0.48877662 0.24310887 0.09142815 0.09845946 -0.21553539 0.5715613
-0.4822412 0.030250045 -0.098080486 0.48154232 0.046369284 -0.1808443 0.08975744 -0.52549887
0.32456562 0.3307123 -0.07551082 0.49681613 -0.8380637 0.45400235 -0.6017896 0.295951
0.5008025 -0.46035764 -0.055789165 -0.22247459 0.3871403 -0.8488932 0.35346484 -0.382148
-0.2508056 0.2033739 0.12755997 0.39983794 0.22994927 -0.2803046 0.8488461 -0.38258964
0.122906566 -0.43162242 0.14492717 0.044940725 -0.14841364 -0.4888122 -0.25797534 -0.61309683
0.2890788 -0.717718 0.7919223 -0.1468989 0.5839185 0.28525898 -0.018209439 0.19498445
0.017202254 -0.38765365 0.39581847 0.019596396 -0.050917923 0.34266305 0.6839819 -0.19107306
-0.11720644 0.008397171 -0.61075974 -0.19769584 0.27951142 -0.49885225 0.1216126 0.06635351
-0.1954372 -0.58086514 0.28208488 -0.66969424 -0.019881263 0.18987606 0.71560794 0.09116627
-0.00902682 0.19517517 0.6153929 -0.5116344 -0.17499943 -0.0042226287 0.28000322 0.6279564
-0.24078868 -0.36847112 -0.40342766 0.37179166 -0.9874531 -0.69579124 0.003946964 -0.5468729
0.57580215 0.6445871 0.021895282 -0.6830669 0.38233215 0.39391592 -0.5216166 0.43906352
0.052968197 -0.09140132 -0.3411226 0.54733443 -0.16778874 0.5909447 -0.9372171 -0.4282098
-0.45092303 0.28596604 0.9019943 0.25593123 0.08317924 -0.6454978 -0.50511205 -0.30573317
-1.0147569 0.44102708 0.22113611 0.468083 0.4780599 -0.38034505 -0.11090821 1.3394499

network_body.linear_encoder.seq_layers.2.bias f4 [128]
00000000: 52e7 c03c 9830 2b3d 61f6 1a3d e00c 9f3c
00000010: 04f7 893c fbf0 083d 6b3c f3bb 14a8 423d
00000020: e2de 533d 358f 183d ccf1 cb3c 76ad c73c
00000030: 1e04 2e3d 75ed c73c 2dd3 423c b1fc 353d
00000040: 29aa 2c3d e414 bf3b 9020 263d 7b13 b23c
00000050: 9108 073d 9651 e73c 94d6 123c a43f 223d
00000060: 55ba 8e3c a2a0 4d3d 0164 253d 59ee 1c3d
00000070: 5e47 ff3b 9ed9 023d 097e 943c c41c 1b3d
00000080: c8c2 ce3c 6a62 163d 13d1 103d 0614 243d
00000090: 5a35 243d be41 4c3d f43c 143d 87be 053d
000000a0: f963 813c 1b86 c53c 42cb b73c 10dd ad3c
000000b0: 3fb4 f03c d9a6 233d c6bd 1c3d e53a 933c
000000c0: f597 4b3d 0e7d 1c3d ff42 333d d4b2 0e3d
000000d0: 7eb4 293d 8117 143b d644 e23c e803 d83c
000000e0: 19a4 e93c 27a6 ce3c 6bf4 5f3c 68a0 643c
000000f0: 2342 1e3d 7210 ed3c 418b 183d a095 b23c
00000100: 9249 f13c bf1a 063d 607b 223d d65a 9a3c
00000110: 56b7 513d 79ca 0c3d 4ab0 173d 4796 143d
00000120: 4723 c23c 62af c93c dce9 03bb 53e5 4c3d
00000130: d7cb d63c df01 b23c c2e9 2f3c 87d5 fc3c
00000140: 0047 213d 0bde 3a3d f3f7 ba3c 8e67 f83c
00000150: 0888 e23c 20f4 953c 9e56 893c 7ac9 293d
00000160: fe12 2c3d 3d2a 063d 66d7 b23c 8b43 053d
00000170: bfba 113d bc34 173d b7ba da3c 3188 8f3c
00000180: 8320 243d cdce 19bd 3f37 0d3d 1cf3 b73c
00000190: 23bf 813c 43c7 e53c fd7a 693b 56f8 3b3d
000001a0: f085 3e3d 89c2 103d 7fff 343d dec1 c43c
000001b0: b761 e43c d674 4c3d 05f8 ed3c fd80 20ba
000001c0: 9b37 2f3d ab4b e73c 32e4 cb3b 9eda 2b3d
000001d0: efe9 2d3c 18dd 253d 63f7 3b3b 6f68 9c3c
000001e0: 6f8f d43c 71b6 b83c a232 2d3d 6ccf 573c
000001f0: d68e 333d 4c10 8cbb 21b1 f93c f6d7 063d
0.023547802 0.04179439 0.03783262 0.019415319 0.016841419 0.033432942 -0.007422974 0.047523573
0.05172623 0.037245948 0.024895571 0.024374705 0.042484395 0.02440522 0.011891169 0.04443044
0.042154465 0.005831348 0.040558398 0.021737805 0.032967154 0.028237145 0.008962292 0.039611474
0.017422834 0.05020202 0.040378574 0.038313244 0.00779049 0.031945817 0.018126504 0.03786923
0.025239363 0.03671495 0.03535564 0.04005816 0.040089943 0.049867384 0.036190942 0.032652404
0.015794741 0.024111798 0.022435788 0.021223575 0.029382823 0.03995404 0.03826692 0.017972419
0.049705464 0.0382052 0.043765064 0.034838513 0.041431896 0.0022597017 0.027620714 0.02636905
0.02852063 0.025225712 0.013669114 0.013954259 0.03863729 0.028938506 0.037242178 0.021799862
0.029454026 0.03274035 0.03966844 0.018842142 0.051200233 0.03437278 0.037033357 0.03627613
0.023698462 0.024619762 -0.0020128405 0.050023388 0.026220245 0.021729408 0.010736885 0.030863537
0.03937435 0.045621913 0.02282331 0.030322816 0.027652755 0.018304884 0.016764935 0.04145191
0.0420103 0.032755125 0.021831226 0.032535117 0.035578486 0.036915526 0.02670036 0.017520996
0.040070068 -0.037550736 0.034476515 0.02245479 0.015838211 0.028049117 0.0035626285 0.04589113
0.04651445 0.035341773 0.044188973 0.024018224 0.027878625 0.04991611 0.029048929 -0.00061227364
0.04277764 0.028234323 0.0062222714 0.041956536 0.010614856 0.040494055 0.002868139 0.019092767
0.0259473 0.022547932 0.042284615 0.013172012 0.04383739 -0.0042744037 0.03047997 0.0329208

network_body.linear_encoder.seq_layers.2.weight f4 [128, 128]
00000000: 120c 47be b774 b83d 7dec 5cbd 59e6 8fbd
00000010: dbd1 a7bd 7ad4 0abe ce76 be3c e44d 0e3e
00000020: 12ff 3e3b 9377 b43d b19b 9e3d 626f 8ebd
00000030: 66f7 f93b 53ff f2bd 46dd 213d 727b c33d
00000040: 3bc0 dcbb 56ae d33d 3a93 5fbc 7310 4bbc
00000050: 5c21 b2bd 61d4 073e df57 c8bc 6d5a d33c
00000060: b189 bc3d 289b 1ebc bd94 93bd 1ede a43d
00000070: bcb8 96bd 895b eabd 04b9 05bd ca02 d33c
00000080: 05db b9bd 7f9d 1a3e 7116 a0bd 895a 66bd
00000090: f1d1 22be 9e6c 94bd 2011 023d 7184 f43d
000000a0: 77c0 5bbc 7ea4 df3c 3de3 89bc 5a2e 823c
000000b0: aa6a 54bd 63aa fa3d 4dec 96be 960e 253d
000000c0: ed56 02bd e1b6 8c3c f3a0 34be 1cc8 883d
000000d0: 9113 c83b 0ca3 05be a10f a43c 76eb ce3d
000000e0: da76 8a3d 2572 cabd 01a2 bb3c 7f6d 3cbe
000000f0: ff48 32bd e6bf 33bd b4b6 19bd f34b b7bd
00000100: 3db4 253e 0ba3 de3d d37e 713e 6729 823d
00000110: 1769 dd3c d811 ba3d 9c7f acbd c773 8e3a
00000120: 383a 0abd 30ba 12be 7c82 183b dd34 05bc
00000130: 8861 1fbe 2962 043d 1ec8 81bd 47dd d1bd
00000140: afd5 ec3c d3b6 023e 684a 1ebd 3da5 dcbd
00000150: 5c41 f93b 0c1e 23bd b7e5 113e 7912 cd3c
00000160: c41f 2cbe 332a 0bbe 9a62 063c dbeb 0e3d
00000170: ebd6 29be d05d 0c3d dc5c b2bd 2e88 f53d
00000180: b98d e9bd aef1 0fbd 2618 00bd 03c7 ab3d
00000190: 4b5d 94bd e832 f83c c32c 4dbe 3885 063e
000001a0: 85fb aebd 2d00 abbd 02f4 d23d 5d4a c1bd
000001b0: 573f 193d 37f0 5f3d 2d14 4bbd e2ac 1b3e
000001c0: 8993 4e3c 82ee 4abd 12bf 043d 214f bb3d
000001d0: 0673 ccbd 9d0e 6fbe 46f8 32bd 8008 97bd
000001e0: b709 0a3e 527f 82bc 35f9 923d d465 d23d
000001f0: 26c7 dabd 59bb ad3d 7fde c4bb ec85 06bd
00000200: 468c e93d bf5e b3bc 7524 423e 1ee5 d93d
00000210: 88bd 09be 85e8 d53d 0ac2 e5bd 67d0 3bbd
00000220: dc51 04be 2856 8c3d 59c4 99bd 4c82 aebd
00000230: b7d4 39bd 9ca0 d6bb 2d67 8dbd a181 59be
00000240: 7fd9 57be 56da 0eba c6ad 81bd 0289 4ebb
00000250: dd3f 153e 3611 54bc b7e4 48bb 01a3 253d
00000260: e0f4 05be f891 963c 08ac d83d 23d6 1c3e
00000270: 0858 383e 0c23 133e e531 e3bb f36d ce3d
00000280: 7033 493c d10b 49bd 323b bd3d 6bd1 003d
00000290: 78e5 53bd 7e0a 813d e700 cd3d 5ae5 95ba
000002a0: 8f11 7c3d f096 b33d 8f45 88bd 7f51 ebbc
000002b0: 9b4f a83d 90e6 9f3a 89e8 4e3d 2b6d fd3c
000002c0: 1b32 5d3b be56 fabd d83b 3a3e 13b0 2f3d
000002d0: d81b 0a3d 8481 88bd 6165 01be b503 08be
000002e0: 3a24 1c3e 4419 e9bd d785 923d 52db 1f3e
000002f0: 1891 6dbd a90b fa3d 2418 643d c589 02be
00000300: 2975 c9bd 3ae9 63bd 7c4e d9bd f623 473d
00000310: 8594 263e d49d f53c d040 223d a68b c0bd
00000320: c078 7dbd 94f1 b23c e309 083e 2431 f8bd
00000330: 8716 85bd aa03 023e 0820 0b3e 9b75 103d
00000340: 6abe 993c 54f5 1c3e 31f6 39bd f13d 14be
00000350: 375f 123e 1aca 58be d9a7 66be b408 ff3c
00000360: 14a0 673e 6a25 3a3d 7763 9c3d 3f3d 82bb
00000370: 9261 3f3b 20ea 253d 7a3a c7bd 59d7 fe3a
00000380: a6a6 6bbe 3841 8fbd 0df1 10bd 9695 143d
00000390: 6d4a c53d 538a 563d 4195 8d3d ccb4 3bbe
000003a0: 245a 643d 2a34 a63c 0328 193d b123 55bd
000003b0: 0904 8b3b 305a 38be 162d 4b3c 5e06 f5bd
000003c0: 83ea b8bd e5e0 25bd 4845 acbc 5378 153d
000003d0: 208f d3bb ad98 533c db85 71bb ae0e 7fbd
000003e0: 70f7 1fbe 4a80 3f3c fbdb b4bd 9249 4e3c
000003f0: 9072 31bd 6d99 433a 312c 9a3d 5e6f a93d
-0.19438198 0.090066366 -0.05393647 -0.07026357 -0.08194324 -0.13557616 0.02325001 0.138969
0.0029143733 0.088118695 0.077445395 -0.06954838 0.007628369 -0.118651055 0.039517663 0.0954503
-0.006736783 0.10335986 -0.013645941 -0.0123940585 -0.08697769 0.1326461 -0.024455963 0.025799954
0.0920595 -0.009680547 -0.07206104 0.08050178 -0.07359454 -0.1144324 -0.032647148 0.025758166
-0.09074978 0.15099142 -0.0781678 -0.056238685 -0.15900399 -0.072472796 0.031754613 0.11939324
-0.013412586 0.027300116 -0.016831988 0.015891243 -0.051859535 0.1223953 -0.29477158 0.040297113
-0.03182118 0.017177047 -0.17639522 0.06678793 0.006105848 -0.13050479 0.020026984 0.10103504
0.067609504 -0.098850526 0.022904398 -0.18401144 -0.043526646 -0.04388418 -0.037527755 -0.08950033
0.16182037 0.10870942 0.23583536 0.06355553 0.02702765 0.09085435 -0.08422777 0.0010868245
-0.033746928 -0.14328837 0.0023271134 -0.008130279 -0.15564549 0.032320175 -0.063369974 -0.102472834
0.028910486 0.12765054 -0.038645178 -0.10773704 0.0076066684 -0.039823577 0.14247786 0.025033223
-0.16808993 -0.13590316 0.008202219 0.034892898 -0.16585891 0.034269154 -0.08709118 0.11988865
-0.114039846 -0.035142593 -0.03127303 0.08387568 -0.07244357 0.030297711 -0.20036606 0.13136756
-0.08544067 -0.08349643 0.10300447 -0.09438012 0.03741392 0.054672446 -0.049579788 0.15202668
0.012608417 -0.049543865 0.03240878 0.09145952 -0.099828765 -0.23345418 -0.043693803 -0.07374668
0.13480268 -0.015929852 0.07176439 0.102733284 -0.10682516 0.08482999 -0.006007969 -0.03284256
0.11403708 -0.021895764 0.1895922 0.10639404 -0.13451207 0.1044474 -0.11218651 -0.045853045
-0.12921852 0.068523705 -0.075081535 -0.08520946 -0.045368876 -0.006549908 -0.06904445 -0.21240856
-0.21079062 -0.00054494047 -0.06331973 -0.0031514768 0.14575143 -0.0129435565 -0.0030653903 0.040438656
-0.13081694 0.01838015 0.10579687 0.15316062 0.18002331 0.14368838 -0.006933438 0.10079565
0.01228033 -0.049083535 0.09239806 0.031449717 -0.05173251 0.06300829 0.10009938 -0.001143615
0.061540183 0.087690234 -0.06653892 -0.028725384 0.082183085 0.001219945 0.05051473 0.030935844
0.003375179 -0.12223576 0.18186891 0.042892527 0.03371796 -0.06665328 -0.12636329 -0.13282664
0.15248194 -0.11381772 0.07154434 0.15611008 -0.0579997 0.12209255 0.055687085 -0.12747867
-0.098368 -0.055642344 -0.10610673 0.04861828 0.16267593 0.029982485 0.03961259 -0.09401636
-0.061882734 0.021843709 0.13285021 -0.12118748 -0.064984374 0.1269671 0.13586438 0.035268407
0.018767554 0.1532796 -0.045400802 -0.14476754 0.14294134 -0.21170846 -0.22524966 0.03113208
0.22619659 0.045445837 0.07636159 -0.0039745863 0.0029202444 0.040506482 -0.097279504 0.0019442841
-0.2301279 -0.06994861 -0.035386134 0.03627547 0.09633336 0.05237801 0.069132335 -0.18330687
0.055750027 0.020288546 0.037391674 -0.05203599 0.0042424244 -0.18003154 0.012400886 -0.11964105
-0.090291046 -0.04049768 -0.02102913 0.036491703 -0.006456271 0.012914819 -0.0036853466 -0.06226986
-0.15621734 0.011688301 -0.088310204 0.012590783 -0.043322146 0.0007461522 0.0752796 0.08273195
